app/src/main/assets/converted_model.tflite (tflite, 845360 bytes, 10 tensors)

lstm_1/lstm_cell_1/bias f4 [512]
000000 0f c6 91 3e d9 fb 92 3e 02 a8 df 3e 0b dd 7d 3e
       0.2847142 0.2870777 0.43682867 0.24791352
000010 62 08 a6 3d 57 18 0b 3e 7b 09 96 3e 14 ea 81 3e
       0.08107068 0.13583504 0.29304108 0.253739
000020 b9 aa a9 3e a1 e7 dc 3e 5f 25 a5 3e 0e 9c 62 3e
       0.33138064 0.4314547 0.32255074 0.22129843
000030 bc a4 17 3d 52 89 5e 3e 36 c8 b2 3e 8d 3b 0c 3e
       0.037022337 0.21732071 0.34918374 0.13694592
000040 26 bb f7 3e 28 7f 46 3e a6 83 e8 3e c5 38 fa 3e
       0.4838497 0.19384444 0.4541294 0.48871437
000050 af a5 aa 3e 41 61 a6 3e 1c db 28 3e 4f 7f 50 3e
       0.33329532 0.32496074 0.16489834 0.20361064
000060 0f cb 5e 3e f4 f2 e1 3d d3 4e dd 3e 2a a6 d0 3e
       0.21757148 0.11032668 0.432242 0.40751773
000070 b5 55 a0 3d 02 ad a4 3d 6b b3 ab 3e 54 8e 12 3e
       0.07828847 0.08040811 0.33535323 0.14312106
000080 42 44 1b 3e 5b 48 ab 3d 3f 94 2d 3d 46 f7 80 3e
       0.15162757 0.0836341 0.042377707 0.25188655
000090 5a 5d 3f 3e 1d 41 a0 3d 12 f9 ae 3d 2a 41 ab 3e
       0.18687955 0.078249194 0.085436 0.33448154
0000a0 80 19 67 3e 0a 45 4d 3e 5f 0e 9e 3e 91 97 47 3e
       0.22568321 0.20045868 0.3087034 0.19491412
0000b0 ee fb ea 3d 65 cf d9 3e ea 05 06 3e 9a 38 5a 3e
       0.11473833 0.42541042 0.13088194 0.21310654
0000c0 7d 9d 4e 3e d2 11 4b 3e 4e 45 00 3d 22 49 94 3e
       0.20177265 0.19831017 0.031316094 0.28962046
0000d0 01 cb 60 3e b0 06 68 3e d3 56 a4 3e 5f ad 62 3e
       0.2195244 0.22658801 0.32097492 0.22136448
0000e0 9e 56 42 3e 64 6d b6 3e 71 d7 17 bd 8d 28 6b 3e
       0.18978354 0.35630333 -0.037070695 0.22964688
0000f0 49 2c 7d 3e 20 7a 67 3e 36 96 c0 3e ce 31 96 3e
       0.24723925 0.2260518 0.37614602 0.29334873
000100 1b 7a ba 3e 6b 0c 35 3e 8f bf bb 3e 82 70 55 3e
       0.36421284 0.17680518 0.36669585 0.208437
000110 65 cc 79 3e 0e cb 72 3e 8f a5 44 3e 21 45 db 3e
       0.24394377 0.23710272 0.1920378 0.4282618
000120 ce c3 bb 3e fa 20 13 3e 29 4e a6 3e 14 c0 c4 3e
       0.36672825 0.14368048 0.32481506 0.38427794
000130 9f 5e 4d 3e d2 43 a7 3e 2a 8e 2b 3e 9c 6b 35 3e
       0.20055626 0.3266893 0.1675345 0.17716831
000140 01 2d 80 3e bf f4 b6 3d 67 76 ad 3e 38 8c 22 3d
       0.25034335 0.089334 0.33879396 0.039684504
000150 0e b0 4c 3e 2a df 52 3e e4 15 6c 3e 81 15 e4 3e
       0.19989035 0.20592943 0.23055226 0.44547656
000160 72 c0 73 3e f6 fc 65 3e 2f 4d f2 3e 02 ce 67 3e
       0.23803881 0.22459778 0.4732451 0.2263718
000170 ad 5c 9d 3e ba f4 0f 3f 16 06 c6 3e 89 e7 78 3e
       0.30734769 0.562328 0.38676518 0.24307074
000180 b6 f5 b2 3e bf 86 b8 3c 42 75 9a 3e d9 6c 8f bc
       0.34953088 0.02252519 0.30167586 -0.017507957
000190 8b 4b 7b 3e d7 5a 43 3e a8 d2 93 3d 85 b8 1d 3e
       0.24540536 0.19077621 0.07217914 0.1540242
0001a0 7e 61 a1 bc 5b 07 b9 3d 23 9d 0a 3e 4a d6 e3 3d
       -0.019699808 0.09034606 0.13536505 0.11124857
0001b0 f8 72 a9 3e bc 45 ae 3e 8f 4c 80 3e 21 98 a0 3e
       0.33095527 0.34037578 0.2505841 0.31366065
0001c0 df 45 7a 3e 00 23 95 3e bc 6c 5d 3d 4a d6 2c 3e
       0.24440716 0.29128265 0.054058775 0.1687862
0001d0 52 88 6a 3e 3f f6 93 3e b2 93 b4 3e c6 8e ab 3e
       0.22903565 0.28898808 0.35268933 0.33507365
0001e0 a2 72 39 3d 7d 6a ef 3d 82 96 ce 3e 40 a4 fd 3e
       0.045275338 0.11690233 0.40349203 0.49539375
0001f0 e4 24 5e 3e f1 c3 ab 3e 64 a4 0d 3e 0e 10 40 3e
       0.2169376 0.3354793 0.13832241 0.18756124
000200 64 64 88 3f cb 37 8a 3f 28 03 2e 3f 81 34 90 3f
       1.0655637 1.0798277 0.67973566 1.1266023
000210 ca a5 71 3f f9 54 76 3f 9b bf 53 3f 57 56 8a 3f
       0.943936 0.9622341 0.8271424 1.0807599
000220 98 41 63 3f 8c 27 77 3f d4 f5 53 3f 8d 6a 4b 3f
       0.88771963 0.9654472 0.8279698 0.7945946
000230 82 f4 66 3f 3f 97 71 3f c8 d8 89 3f 58 2a 67 3f
       0.9021684 0.9437141 1.0769281 0.90298986
000240 89 7f 69 3f 1e dd 90 3f 6f d9 6f 3f b8 d8 4d 3f
       0.9121023 1.131748 0.9369115 0.8040881
000250 aa 5d 79 3f 4e 0e 55 3f 0c f1 42 3f 22 0d 9d 3f
       0.97408545 0.8322495 0.7614906 1.2269633
000260 7d f9 50 3f b8 c8 89 3f 26 72 78 3f b3 e8 3a 3f
       0.8163069 1.076438 0.97049177 0.7301132
000270 5b c0 73 3f 7a 8b 5b 3f 40 07 83 3f d9 81 5c 3f
       0.95215386 0.857597 1.0236588 0.8613563
000280 12 6c 5a 3f b9 d3 5a 3f 3e 5d 75 3f 35 b0 81 3f
       0.8532115 0.85479313 0.958454 1.0131899
000290 28 2f 72 3f 22 37 66 3f 33 71 35 3f 1b 19 80 3f
       0.94603205 0.89927876 0.70875853 1.0007662
0002a0 95 98 6e 3f 26 f2 65 3f 48 25 95 3f f6 38 8b 3f
       0.9320157 0.89822614 1.1652002 1.0876758
0002b0 4a 18 51 3f 90 ba 53 3f c4 38 29 3f 6e 85 9c 3f
       0.8167769 0.82706547 0.6610224 1.222822
0002c0 23 1d 56 3f e7 6e 7c 3f d9 9f 67 3f 9c 62 8b 3f
       0.8363821 0.98606724 0.90478283 1.0889468
0002d0 6a 05 91 3f d9 d1 80 3f c3 22 4a 3f 30 94 67 3f
       1.1329777 1.006404 0.7895929 0.9046049
0002e0 0a ad 79 3f ec 0d 5f 3f f6 c0 9a 3f 15 06 83 3f
       0.9752966 0.8713062 1.2090137 1.0236231
0002f0 9a e7 76 3f a5 4c 56 3f 58 d0 6c 3f 81 64 55 3f
       0.96447146 0.837107 0.9250541 0.8335648
000300 bc ff 75 3f 50 b5 92 3f 7a 75 50 3f fe 6f 95 3f
       0.96093345 1.1461582 0.81429255 1.1674802
000310 7e e6 83 3f 75 33 a0 3f 9f 52 55 3f e8 96 63 3f
       1.0304716 1.2515703 0.83329195 0.8890214
000320 e1 fc 31 3f eb cb 61 3f d6 3c 85 3f c2 bd 82 3f
       0.6952649 0.8820178 1.0409191 1.021416
000330 45 d5 92 3f da 90 66 3f d9 f8 4c 3f 87 e1 77 3f
       1.1471335 0.90064776 0.8006721 0.968285
000340 f6 8f 4c 3f f8 e3 72 3f 23 69 7d 3f 99 0d 83 3f
       0.79907167 0.948791 0.9898855 1.0238525
000350 18 1f 97 3f 01 a2 71 3f 2b cd 7c 3f 8f 87 55 3f
       1.1806364 0.94387823 0.9875056 0.8340997
000360 5f 34 8b 3f 50 6e 9b 3f 17 d8 71 3f 4f e5 7c 3f
       1.0875357 1.214304 0.9447035 0.987874
000370 50 38 8f 3f a3 9d 50 3f ce 1b 85 3f 78 45 74 3f
       1.118906 0.81490535 1.039911 0.954185
000380 a2 e5 7d 3f c1 54 6a 3f 89 4d b4 3f 20 36 8b 3f
       0.99178517 0.91535574 1.4086162 1.0875893
000390 61 0b 44 3f e0 e5 94 3f 31 9b 2f 3f 17 b7 4d 3f
       0.7657986 1.1632652 0.6859618 0.803575
0003a0 07 e2 41 3f 03 14 6a 3f 2a 79 9e 3f 54 95 4b 3f
       0.75735515 0.91436785 1.2380726 0.7952473
0003b0 9c be 8e 3f b7 57 52 3f 44 16 60 3f 6e a0 9b 3f
       1.1151919 0.8216509 0.87533975 1.2158334
0003c0 28 aa 9a 3f cb 5c 4f 3f eb 55 83 3f 22 fa 70 3f
       1.2083178 0.81000966 1.0260595 0.9413167
0003d0 a7 62 67 3f a6 73 53 3f 0f 7a 4e 3f 4e 4b 48 3f
       0.90384907 0.8259834 0.80654997 0.78239906
0003e0 c0 58 92 3f 9e 2f 84 3f f4 72 8d 3f 3c b0 56 3f
       1.1433334 1.0327032 1.1050706 0.8386266
0003f0 c3 a5 89 3f a5 4e 42 3f 8c 14 8f 3f 5f 5a 98 3f
       1.0753711 0.7590125 1.1178145 1.1902579

lstm/lstm_cell/bias f4 [512]
000000 f3 33 64 bf e7 a8 3c bf 20 51 e0 be d9 90 f3 be
       -0.8914177 -0.73695225 -0.43811893 -0.47571447
000010 b7 33 a9 be f3 e4 75 3e 9a a1 85 bf 19 b7 68 be
       -0.33047268 0.24013118 -1.0439942 -0.22726096
000020 53 a2 b1 be 02 4d 3b be cf 6c 52 3e b2 83 6e 3d
       -0.34694156 -0.18291095 0.2054932 0.058231063
000030 bd 44 e5 be 0c f7 9a be 3b 03 75 bf 12 7b d1 bd
       -0.44779006 -0.30266607 -0.95708054 -0.10228552
000040 e9 90 d9 be 46 9e b2 be 8b a6 29 3e 4c 6e a6 be
       -0.4249337 -0.34886378 0.16567437 -0.32506025
000050 1b 2f 89 be a7 c7 07 bf 53 6b b1 bc 60 b2 b7 be
       -0.2679375 -0.5303902 -0.021657621 -0.35878277
000060 8f 06 00 bf 72 5a fd be e1 c6 fb be f6 fa 09 bf
       -0.5001001 -0.49483067 -0.4917517 -0.5389856
000070 87 b9 52 be 9f 12 12 bf 1a e1 d1 be b4 35 de 3d
       -0.20578586 -0.57059664 -0.4099205 0.10850087
000080 6a bb 5b bf d2 66 33 be 17 d6 09 bf a1 10 90 bd
       -0.85832846 -0.17519692 -0.538423 -0.07034422
000090 33 4a c3 bc 15 3c 92 3d a2 99 e3 be 0c 95 84 be
       -0.023839092 0.07140366 -0.4445315 -0.25894964
0000a0 fc 07 1c bf 1f 86 0a bf f5 98 cb be 63 c9 e5 3d
       -0.60949683 -0.541109 -0.39765134 0.11220052
0000b0 36 48 4d bf d3 2b 3e 3e ce 32 a7 be f7 e8 e7 be
       -0.8018831 0.18571405 -0.32655948 -0.45294926
0000c0 30 82 9e be f1 33 29 bf 73 ff 50 be 07 da ab be
       -0.309587 -0.6609488 -0.20409946 -0.3356478
0000d0 32 a0 ad be e6 69 1c be ee 86 ee 3d d4 f6 89 be
       -0.33911282 -0.15274772 0.116468295 -0.26946127
0000e0 dd bc 26 be 3b 1b ed bd 6a c5 af be 0e b8 12 bd
       -0.16282983 -0.115774594 -0.34330302 -0.03582006
0000f0 f8 44 d3 be 7a a9 23 bf e3 a1 a1 3d 61 f7 1e be
       -0.41263556 -0.63930476 0.078922056 -0.15524055
000100 08 3b fe be a0 75 c4 be c9 32 f2 be 1b ea 12 be
       -0.49654412 -0.3837099 -0.4730437 -0.14347117
000110 9f 0a 2b be 28 b5 eb be 32 07 cc be a5 d5 c3 be
       -0.1670327 -0.4603665 -0.3984924 -0.38248935
000120 2f c3 6d be 33 c1 4f be 6d 4c ce be b2 af c6 bd
       -0.23218988 -0.20288543 -0.40292683 -0.0970148
000130 e7 4d 31 bf a0 77 92 be b3 39 fd be c1 0d 52 3e
       -0.69259495 -0.28606892 -0.49458084 0.20513059
000140 f8 61 f2 3e 8b 0f 4c 3f b9 e8 47 bf 31 c0 fb be
       0.4734037 0.79711217 -0.7808948 -0.49170068
000150 b4 84 0a be ee 9b 45 be 48 fb f2 3b d2 ad 4c 3e
       -0.13527185 -0.19297764 0.007415209 0.19988182
000160 c2 cc 83 be bd 52 e8 bd 2d f3 dd bd d8 27 15 3d
       -0.25742155 -0.11343906 -0.10837398 0.03641495
000170 19 4e 6a bd bc 30 55 be d2 f0 aa be 0d e4 6d be
       -0.057203386 -0.20819372 -0.33386856 -0.23231526
000180 9e 8e 83 be d9 37 b1 be 07 18 87 bd 26 e2 27 bf
       -0.25694746 -0.3461292 -0.0659638 -0.6557945
000190 89 eb d3 3c 97 da a5 be bb a2 d2 be 3c be 94 be
       0.025869148 -0.32393333 -0.41139778 -0.29051387
0001a0 b6 77 31 bf 56 77 c6 be 3a 78 69 bd b0 7b bc be
       -0.6932329 -0.3876292 -0.056999423 -0.36813116
0001b0 0b fd 17 bf be 82 9a bc 3c 15 dc be c4 e2 2e bf
       -0.5937049 -0.01886117 -0.4298495 -0.68314767
0001c0 b9 c7 46 be ef aa bc bd 6b e7 85 be 82 56 34 3e
       -0.19412126 -0.092122905 -0.2615312 0.17611125
0001d0 d3 04 40 3c c9 d7 d7 3d 37 73 23 bf 76 6f d9 be
       0.0117199 0.105392046 -0.6384768 -0.4246785
0001e0 4b f6 25 be 49 1e fa ba 9a 6b f8 3d 7a d7 57 be
       -0.16207235 -0.0019082512 0.12129898 -0.21078292
0001f0 60 df 55 be 02 96 87 be 97 db 22 bf 61 27 b3 3e
       -0.20885992 -0.26481634 -0.6361632 0.3499098
000200 2a 5b bd 3e 79 44 50 3f 04 53 83 3f 70 45 53 3f
       0.36983615 0.8135448 1.0259709 0.8252783
000210 40 02 5a 3f 96 28 4e 3f 08 3f 68 3e 85 80 47 3f
       0.85159683 0.8053068 0.22680295 0.7793048
000220 8e 14 7d 3f 87 ef 8e 3f 69 a4 63 3f 9d 6b 50 3f
       0.9885949 1.1166848 0.88922745 0.81414205
000230 91 10 36 3f d3 fb 6f 3f 7b e5 1f 3f 25 20 71 3f
       0.7111903 0.9374363 0.62459534 0.94189674
000240 33 f2 4e 3f dd 90 a2 3e 88 29 f7 3e d8 4f 72 3f
       0.80838317 0.31751147 0.48273873 0.9465308
000250 85 f8 2e 3f 59 8a 53 3f d1 f4 9c 3f ff a8 58 3f
       0.6834796 0.82632977 1.2262212 0.8463287
000260 5a 08 60 3f 09 e6 63 3f 80 93 38 3f 9b f6 4b 3f
       0.87512743 0.8902288 0.7210007 0.79673165
000270 1c 36 7c 3f bb 67 72 3f e9 68 5a 3f fb 54 70 3f
       0.98520064 0.9468953 0.8531633 0.9387967
000280 03 b3 03 3f 40 2a 7e 3f 26 16 4f 3f 1f d3 09 3f
       0.51445025 0.9928322 0.8089317 0.5383777
000290 ba ae 15 3f 50 a7 52 3f c6 94 5d 3f 78 b3 88 3f
       0.58469737 0.8228655 0.86555135 1.067977
0002a0 2f a8 c5 3e 17 d3 18 3f 47 02 62 3f be 4d 88 3f
       0.38604876 0.596971 0.88284725 1.0648725
0002b0 86 42 0a 3f c2 04 65 3f 13 b7 76 3f 4b 54 78 3f
       0.54007757 0.89460385 0.963731 0.9700362
0002c0 d5 52 48 3f 1f 0c 55 3f 4d 3e 7c 3f ec 4c 60 3f
       0.7825139 0.8322162 0.98532563 0.87617373
0002d0 93 3a 63 3f a8 92 8e 3f 50 d5 66 3f 84 d0 4f 3f
       0.8876125 1.1138506 0.9016924 0.81177545
0002e0 96 73 3a 3f c4 5a 70 3f d8 d5 41 3f e1 4f 89 3f
       0.7283262 0.938885 0.75716925 1.0727502
0002f0 04 c1 74 3e 93 da 49 3f 6c fd 8f 3f f1 3d 5c 3f
       0.23901755 0.7884914 1.1249213 0.86032015
000300 65 cb 52 3f 82 7e 88 3f 64 91 77 3f 81 0b 80 3f
       0.82341605 1.0663607 0.96706223 1.0003511
000310 72 99 fe 3e c9 d1 88 3f 76 e5 35 3f 5c 1e 1b 3f
       0.49726444 1.0689021 0.71053255 0.605932
000320 24 83 8a 3f c9 2a 69 3f 41 08 42 3f 3c 8c 60 3f
       1.0821271 0.9108091 0.75793844 0.8771398
000330 f8 5e 4b 3f 78 0e 81 3f 20 1c 60 3f cc bb 30 3f
       0.79441786 1.008254 0.87542915 0.69036555
000340 64 6b 23 3f 1c c2 43 3f 88 d2 09 3f 2f 2c 69 3f
       0.6383574 0.7646806 0.5383687 0.91083044
000350 51 0a 8b 3f b7 e1 41 3f 72 0f 57 3f 74 56 18 3f
       1.0862523 0.7573504 0.8400794 0.59506917
000360 df e3 47 3f 51 54 83 3f f0 36 59 3f 7b d1 79 3f
       0.7808208 1.0260106 0.8484945 0.97585267
000370 43 74 5d 3f 6c 17 9d 3f 0c 1a 1d 3f 7f ed 81 3f
       0.86505526 1.2272773 0.6136787 1.0150603
000380 bb 6b 88 3f b3 48 83 3f 9c 18 8d 3f dc f9 56 3f
       1.0657877 1.0256561 1.1023135 0.83975005
000390 63 c2 93 3f 0b e4 7e 3f 61 17 5e 3f 5b 46 6b 3f
       1.1543697 0.99566716 0.86754423 0.9190423
0003a0 17 1d 47 3f 9b 8c 85 3f b3 b3 6a 3f 8e 26 05 3f
       0.7777876 1.0433534 0.9168045 0.52011955
0003b0 1c fb 5a 3f 81 1d 80 3f cc 97 6a 3f 54 fe 64 3f
       0.8553941 1.0009004 0.91637874 0.89450574
0003c0 66 6b 63 3f 6d 5a 27 3f 6b b4 71 3f 4d 8c 3d 3f
       0.8883575 0.65372354 0.9441592 0.74042207
0003d0 28 13 8f 3f bd cb a8 3f e4 d2 39 3f 0e 3d 72 3f
       1.1177721 1.3187176 0.7258742 0.9462441
0003e0 06 1d 86 3f 7f 3c 7e 3f 92 a0 4a 3f 42 76 7b 3f
       1.0477607 0.9931106 0.7915126 0.9822732
0003f0 4f 1a 6e 3f 64 ea 86 3f cd d5 2b 3f e6 83 86 3f
       0.93008894 1.054028 0.6712311 1.0509002

dense/bias f4 [12]
000000 7a dd 86 bd a7 72 5d be c4 4a 27 3d 7b ec a3 3e
       -0.06585212 -0.21625768 0.040842786 0.32016358
000010 ee b6 80 3d a8 a3 90 bd a5 58 45 bd 6c ef d9 bc
       0.06284891 -0.07062465 -0.04818024 -0.026603423
000020 fd 5e f4 3d e6 76 c3 bd 9b 9d af bd 5c 13 44 3d
       0.1193218 -0.095441625 -0.08574983 0.047870025

std.constant11 f4 [12, 128]
000000 64 f7 71 3f 7f 68 9a 3e 7d 42 89 3e 76 86 97 3e
       0.94518113 0.3015785 0.2680854 0.29594773
000010 47 4b ce be 7d 23 22 3f 64 50 c7 3e 7d 68 a2 3e
       -0.40291807 0.633354 0.3892852 0.31720343
000020 16 3f cd 3d 7f 70 6b be 79 df 9a 3f 93 af ec bd
       0.10021798 -0.22992133 1.2099448 -0.115569256
000030 20 ac 47 3f d9 88 80 bd d6 ca 12 40 4b 88 02 3f
       0.77997017 -0.062761016 2.2936301 0.50989217
000040 a7 82 7c 3e 82 8e e7 3e 19 f1 a4 3d 1a d3 bd 3e
       0.24659215 0.45225912 0.08053798 0.3707512
000050 ea b7 bb be aa dc c5 3d f9 7a 35 3f 36 dd 8f 3d
       -0.36663753 0.09661229 0.70890766 0.070246145
000060 3d 12 30 be c2 33 b3 3c cd 44 21 3f f6 01 50 3d
       -0.17194457 0.021875266 0.62995607 0.05078312
000070 99 35 fd 3c 38 f9 5c 3e be ea 02 bf b6 f9 bf be
       0.030909346 0.21579444 -0.5113944 -0.37495202
000080 15 2e 9e 3d 41 fe 06 c0 3c 44 7a 3f 38 fd 16 bf
       0.07723633 -2.1092684 0.9776037 -0.5898013
000090 21 4a 89 3f 49 ef 1b bf 73 e4 b6 bd 8c 3e b2 be
       1.0725747 -0.60911995 -0.08930292 -0.34813344
0000a0 75 94 d8 bf af 1f 4f 3d ff 52 64 bd 11 54 e5 be
       -1.6920305 0.050567325 -0.055743214 -0.447907
0000b0 b3 b8 67 bd b2 60 57 be 8b a5 86 3f ae 28 04 be
       -0.056572627 -0.2103298 1.051927 -0.12906143
0000c0 8f a2 7d bf bf b9 85 bd e8 cb 98 bf f4 61 70 3f
       -0.9907617 -0.06529569 -1.1937227 0.93899465
0000d0 65 9f 95 3d fe f9 48 3f 5d e0 9c 3e fd fd 78 3e
       0.07305793 0.7850646 0.30639926 0.24315639
0000e0 92 cb 43 be 53 6c e1 3e a9 d7 bf 3d cf c9 9f bf
       -0.19120625 0.44027957 0.09367306 -1.2483462
0000f0 79 f9 b4 be 23 ed 97 be 15 9f c8 3f bc 2d 83 be
       -0.35346583 -0.29673108 1.5673548 -0.2562083
000100 42 fe 09 bd 2d bd 51 3f a3 f9 aa 3e 01 d8 53 3d
       -0.033689745 0.81929284 0.33393583 0.05171967
000110 0f 0b 20 be 97 69 46 3f c8 bf 7c be d0 13 cd be
       -0.15629219 0.7750487 -0.24682534 -0.40054178
000120 1e 67 9b bd e5 cf a2 3f fc 28 98 3d ad 9c 01 3e
       -0.075880274 1.2719694 0.07429692 0.12657423
000130 88 6f 52 be 11 d1 5c bf 3d 3b 90 3e 1f c4 f4 be
       -0.20550358 -0.8625651 0.28170195 -0.4780588
000140 31 e5 ff 3e 4f 3b 72 be 61 f5 9a 3d 78 d9 b6 3e
       0.49979547 -0.23655437 0.075663336 0.3571279
000150 1e 3b 3f be 75 02 59 3f 9e f3 6a 3f 5f b7 59 3e
       -0.18674895 0.84769374 0.9177798 0.21261357
000160 49 06 f3 bc 4c f6 d7 bd d1 c9 17 3e 62 ef 20 be
       -0.029666083 -0.10545024 0.1482308 -0.15716317
000170 b4 54 45 be 92 d6 eb be c8 ab be be 0b 44 c7 be
       -0.19270593 -0.46062142 -0.37240434 -0.389191
000180 1c 2a 37 bf 1f 9f 29 bf 2f 38 c5 3e 75 a5 c2 bf
       -0.7154863 -0.66258425 0.38519427 -1.5206743
000190 91 27 0d bc f2 3b cd 3e e8 74 23 be b6 4b 09 bf
       -0.00861539 0.40084797 -0.15962565 -0.5363115
0001a0 29 53 87 be a5 fb 75 be 95 51 fd 3d bc 76 41 be
       -0.26430634 -0.24021776 0.12369076 -0.1889295
0001b0 65 b3 70 3f ee db 5d be 12 2b 59 bf f0 3d 2c 3e
       0.94023734 -0.21665928 -0.84831345 0.16820502
0001c0 b0 61 8b bd 32 a5 a1 3e 75 a3 ed 3f 3a da 8b be
       -0.06805742 0.31571347 1.8565508 -0.2731493
0001d0 f8 99 76 3e 23 89 66 be 9d 35 57 bf 09 25 88 3e
       0.24082172 -0.22513251 -0.8406618 0.26590756
0001e0 7a cc 96 3d 96 8b 41 3e a1 57 5a 3e 34 fb 7d bd
       0.073632196 0.18900904 0.2132249 -0.062007144
0001f0 fb 35 04 bf 20 94 02 3f 1d ec 29 3f 76 c4 29 be
       -0.5164487 0.5100727 0.66375905 -0.1657885
000200 8b c3 c7 3e 5c 46 8c bd 59 21 15 3e d1 73 c8 be
       0.39016375 -0.068493575 0.14563502 -0.3915086
000210 13 fd 71 be 8e c1 dc 3b ad b8 18 3e 32 4f e6 3c
       -0.23631696 0.0067369407 0.14914198 0.028113935
000220 60 2a ab 3e 6e 06 91 3e f5 cc e3 3d b8 b7 28 3e
       0.33430767 0.28325218 0.11123077 0.16476333
000230 f9 d8 a0 3e 98 fa a4 be 9e 8a 18 3f 9b 75 f7 bb
       0.31415537 -0.32222438 0.59586513 -0.0075518615
000240 1f e1 6d be 70 6c 65 be e9 16 cc be d2 41 1e be
       -0.23230408 -0.22404647 -0.3986123 -0.15454796
000250 1a 59 ab 3e 74 25 69 3e 22 ae c4 bc 6c de e3 be
       0.33466417 0.22768193 -0.024008814 -0.44505632
000260 1e 8a 6f 3e 20 8f 8f 3e b3 ca af 3b 24 00 c5 be
       0.23392531 0.28038883 0.00536474 -0.3847667
000270 1b 43 84 be e3 f3 8d bd 49 fc cd bd c5 94 2d bd
       -0.25832447 -0.06931283 -0.10057885 -0.042378206
000280 00 3a f2 3d 8b 9d 92 3e e0 88 6b be 57 28 30 be
       0.11827469 0.2863582 -0.23001432 -0.17202888
000290 6a 83 3b be 75 e5 06 be 26 e2 89 3e 3d bc 4c be
       -0.18311849 -0.13173468 0.2693035 -0.19993682
0002a0 67 09 2a bf a8 5c 1e be 56 b9 f1 be 74 fb 31 be
       -0.66420597 -0.15465033 -0.47211713 -0.17381078
0002b0 57 d3 58 be 0a 76 0c 3c 86 c7 8f bd d9 d4 46 be
       -0.2117437 0.008573065 -0.07020478 -0.19417132
0002c0 4a 5b d0 3e 37 e4 8f be b8 74 07 3e 5e 32 83 3e
       0.40694648 -0.28103802 0.13228118 0.25624365
0002d0 c1 84 80 be 62 da 1e 3f 86 e1 a4 bc c0 a7 c3 bd
       -0.25101283 0.62051976 -0.02012707 -0.0955348
0002e0 e6 80 94 bd 97 11 69 bd f5 07 0f 3f a7 20 0d bf
       -0.07251148 -0.05690154 0.55871516 -0.5512795
0002f0 f5 96 a0 3e fd dd c1 3e f0 42 34 3f be f6 34 3c
       0.3136517 0.37864676 0.7041464 0.011045156
000300 c6 e0 49 3e ac c2 54 3f ee 6d 2c be 1e 29 f1 3e
       0.1971465 0.83109546 -0.1683881 0.47101682
000310 4f 50 9a 3d 86 d2 13 3f 17 26 93 3e 01 39 82 be
       0.07534849 0.5774311 0.28739998 -0.25434116
000320 23 e1 9d 3d b6 f2 ea 3c 91 9c d5 bd b9 ed f8 be
       0.07708957 0.028680187 -0.10430253 -0.48618868
000330 ba 72 0d bf d8 df 35 be 0d b5 a5 3e ef e6 98 3e
       -0.55253184 -0.17761171 0.32364693 0.29863688
000340 70 08 8e 3e 62 6f c1 3e 58 8b fd 3e 60 51 e6 be
       0.27740812 0.3778029 0.49520373 -0.4498396
000350 f9 21 c7 3e a9 ce 72 3e e4 45 01 bf c7 23 17 3d
       0.38893107 0.23711647 -0.5049727 0.036899354
000360 be 87 16 3f 51 f5 24 bf cb 35 19 bf ff 6b b0 3e
       0.58800876 -0.64436823 -0.59847707 0.34457394
000370 b2 07 07 3f 11 1e dc be 5e ea 5f bd 1f 53 00 bf
       0.5274612 -0.4299169 -0.05466687 -0.5012683
000380 7e ba a7 be 86 90 80 3e 34 d3 e6 3e 67 32 87 3d
       -0.3275947 0.25110263 0.4508301 0.0660141
000390 27 6a 10 be 04 a7 e2 bc 89 5c 8a 3e 5f fd b6 bd
       -0.14102994 -0.02766753 0.27023724 -0.089350455
0003a0 eb 55 f6 3d 7f 14 a0 3d 73 00 fd 3e 06 a9 69 be
       0.12028106 0.07816409 0.49414405 -0.22818384
0003b0 ab 2b 00 3f 1f 71 7a 3d 32 db 0f 3e a7 af 82 bd
       0.5006663 0.061143037 0.1404846 -0.06381159
0003c0 dc f5 0b 3e e2 89 12 be 27 fe 08 3f e8 72 5d be
       0.13668007 -0.1431041 0.53512806 -0.21625865
0003d0 a4 3f 5b 3f 79 e5 54 be 08 77 d5 3d 36 f3 5c bb
       0.8564398 -0.20790662 0.10423094 -0.00337143
0003e0 9a 01 00 bf b2 03 3e be 6c 1c 2b 3e 6b f1 84 bc
       -0.50002444 -0.18556097 0.16710061 -0.016228398
0003f0 13 32 19 bf 06 e7 87 be 49 a3 27 be 48 f7 31 bf
       -0.5984203 -0.26543444 -0.16370882 -0.69517946

lstm/lstm_cell/bias1 f4 [512]
000000 f3 33 64 bf e7 a8 3c bf 20 51 e0 be d9 90 f3 be
       -0.8914177 -0.73695225 -0.43811893 -0.47571447
000010 b7 33 a9 be f3 e4 75 3e 9a a1 85 bf 19 b7 68 be
       -0.33047268 0.24013118 -1.0439942 -0.22726096
000020 53 a2 b1 be 02 4d 3b be cf 6c 52 3e b2 83 6e 3d
       -0.34694156 -0.18291095 0.2054932 0.058231063
000030 bd 44 e5 be 0c f7 9a be 3b 03 75 bf 12 7b d1 bd
       -0.44779006 -0.30266607 -0.95708054 -0.10228552
000040 e9 90 d9 be 46 9e b2 be 8b a6 29 3e 4c 6e a6 be
       -0.4249337 -0.34886378 0.16567437 -0.32506025
000050 1b 2f 89 be a7 c7 07 bf 53 6b b1 bc 60 b2 b7 be
       -0.2679375 -0.5303902 -0.021657621 -0.35878277
000060 8f 06 00 bf 72 5a fd be e1 c6 fb be f6 fa 09 bf
       -0.5001001 -0.49483067 -0.4917517 -0.5389856
000070 87 b9 52 be 9f 12 12 bf 1a e1 d1 be b4 35 de 3d
       -0.20578586 -0.57059664 -0.4099205 0.10850087
000080 6a bb 5b bf d2 66 33 be 17 d6 09 bf a1 10 90 bd
       -0.85832846 -0.17519692 -0.538423 -0.07034422
000090 33 4a c3 bc 15 3c 92 3d a2 99 e3 be 0c 95 84 be
       -0.023839092 0.07140366 -0.4445315 -0.25894964
0000a0 fc 07 1c bf 1f 86 0a bf f5 98 cb be 63 c9 e5 3d
       -0.60949683 -0.541109 -0.39765134 0.11220052
0000b0 36 48 4d bf d3 2b 3e 3e ce 32 a7 be f7 e8 e7 be
       -0.8018831 0.18571405 -0.32655948 -0.45294926
0000c0 30 82 9e be f1 33 29 bf 73 ff 50 be 07 da ab be
       -0.309587 -0.6609488 -0.20409946 -0.3356478
0000d0 32 a0 ad be e6 69 1c be ee 86 ee 3d d4 f6 89 be
       -0.33911282 -0.15274772 0.116468295 -0.26946127
0000e0 dd bc 26 be 3b 1b ed bd 6a c5 af be 0e b8 12 bd
       -0.16282983 -0.115774594 -0.34330302 -0.03582006
0000f0 f8 44 d3 be 7a a9 23 bf e3 a1 a1 3d 61 f7 1e be
       -0.41263556 -0.63930476 0.078922056 -0.15524055
000100 08 3b fe be a0 75 c4 be c9 32 f2 be 1b ea 12 be
       -0.49654412 -0.3837099 -0.4730437 -0.14347117
000110 9f 0a 2b be 28 b5 eb be 32 07 cc be a5 d5 c3 be
       -0.1670327 -0.4603665 -0.3984924 -0.38248935
000120 2f c3 6d be 33 c1 4f be 6d 4c ce be b2 af c6 bd
       -0.23218988 -0.20288543 -0.40292683 -0.0970148
000130 e7 4d 31 bf a0 77 92 be b3 39 fd be c1 0d 52 3e
       -0.69259495 -0.28606892 -0.49458084 0.20513059
000140 f8 61 f2 3e 8b 0f 4c 3f b9 e8 47 bf 31 c0 fb be
       0.4734037 0.79711217 -0.7808948 -0.49170068
000150 b4 84 0a be ee 9b 45 be 48 fb f2 3b d2 ad 4c 3e
       -0.13527185 -0.19297764 0.007415209 0.19988182
000160 c2 cc 83 be bd 52 e8 bd 2d f3 dd bd d8 27 15 3d
       -0.25742155 -0.11343906 -0.10837398 0.03641495
000170 19 4e 6a bd bc 30 55 be d2 f0 aa be 0d e4 6d be
       -0.057203386 -0.20819372 -0.33386856 -0.23231526
000180 9e 8e 83 be d9 37 b1 be 07 18 87 bd 26 e2 27 bf
       -0.25694746 -0.3461292 -0.0659638 -0.6557945
000190 89 eb d3 3c 97 da a5 be bb a2 d2 be 3c be 94 be
       0.025869148 -0.32393333 -0.41139778 -0.29051387
0001a0 b6 77 31 bf 56 77 c6 be 3a 78 69 bd b0 7b bc be
       -0.6932329 -0.3876292 -0.056999423 -0.36813116
0001b0 0b fd 17 bf be 82 9a bc 3c 15 dc be c4 e2 2e bf
       -0.5937049 -0.01886117 -0.4298495 -0.68314767
0001c0 b9 c7 46 be ef aa bc bd 6b e7 85 be 82 56 34 3e
       -0.19412126 -0.092122905 -0.2615312 0.17611125
0001d0 d3 04 40 3c c9 d7 d7 3d 37 73 23 bf 76 6f d9 be
       0.0117199 0.105392046 -0.6384768 -0.4246785
0001e0 4b f6 25 be 49 1e fa ba 9a 6b f8 3d 7a d7 57 be
       -0.16207235 -0.0019082512 0.12129898 -0.21078292
0001f0 60 df 55 be 02 96 87 be 97 db 22 bf 61 27 b3 3e
       -0.20885992 -0.26481634 -0.6361632 0.3499098
000200 2a 5b bd 3e 79 44 50 3f 04 53 83 3f 70 45 53 3f
       0.36983615 0.8135448 1.0259709 0.8252783
000210 40 02 5a 3f 96 28 4e 3f 08 3f 68 3e 85 80 47 3f
       0.85159683 0.8053068 0.22680295 0.7793048
000220 8e 14 7d 3f 87 ef 8e 3f 69 a4 63 3f 9d 6b 50 3f
       0.9885949 1.1166848 0.88922745 0.81414205
000230 91 10 36 3f d3 fb 6f 3f 7b e5 1f 3f 25 20 71 3f
       0.7111903 0.9374363 0.62459534 0.94189674
000240 33 f2 4e 3f dd 90 a2 3e 88 29 f7 3e d8 4f 72 3f
       0.80838317 0.31751147 0.48273873 0.9465308
000250 85 f8 2e 3f 59 8a 53 3f d1 f4 9c 3f ff a8 58 3f
       0.6834796 0.82632977 1.2262212 0.8463287
000260 5a 08 60 3f 09 e6 63 3f 80 93 38 3f 9b f6 4b 3f
       0.87512743 0.8902288 0.7210007 0.79673165
000270 1c 36 7c 3f bb 67 72 3f e9 68 5a 3f fb 54 70 3f
       0.98520064 0.9468953 0.8531633 0.9387967
000280 03 b3 03 3f 40 2a 7e 3f 26 16 4f 3f 1f d3 09 3f
       0.51445025 0.9928322 0.8089317 0.5383777
000290 ba ae 15 3f 50 a7 52 3f c6 94 5d 3f 78 b3 88 3f
       0.58469737 0.8228655 0.86555135 1.067977
0002a0 2f a8 c5 3e 17 d3 18 3f 47 02 62 3f be 4d 88 3f
       0.38604876 0.596971 0.88284725 1.0648725
0002b0 86 42 0a 3f c2 04 65 3f 13 b7 76 3f 4b 54 78 3f
       0.54007757 0.89460385 0.963731 0.9700362
0002c0 d5 52 48 3f 1f 0c 55 3f 4d 3e 7c 3f ec 4c 60 3f
       0.7825139 0.8322162 0.98532563 0.87617373
0002d0 93 3a 63 3f a8 92 8e 3f 50 d5 66 3f 84 d0 4f 3f
       0.8876125 1.1138506 0.9016924 0.81177545
0002e0 96 73 3a 3f c4 5a 70 3f d8 d5 41 3f e1 4f 89 3f
       0.7283262 0.938885 0.75716925 1.0727502
0002f0 04 c1 74 3e 93 da 49 3f 6c fd 8f 3f f1 3d 5c 3f
       0.23901755 0.7884914 1.1249213 0.86032015
000300 65 cb 52 3f 82 7e 88 3f 64 91 77 3f 81 0b 80 3f
       0.82341605 1.0663607 0.96706223 1.0003511
000310 72 99 fe 3e c9 d1 88 3f 76 e5 35 3f 5c 1e 1b 3f
       0.49726444 1.0689021 0.71053255 0.605932
000320 24 83 8a 3f c9 2a 69 3f 41 08 42 3f 3c 8c 60 3f
       1.0821271 0.9108091 0.75793844 0.8771398
000330 f8 5e 4b 3f 78 0e 81 3f 20 1c 60 3f cc bb 30 3f
       0.79441786 1.008254 0.87542915 0.69036555
000340 64 6b 23 3f 1c c2 43 3f 88 d2 09 3f 2f 2c 69 3f
       0.6383574 0.7646806 0.5383687 0.91083044
000350 51 0a 8b 3f b7 e1 41 3f 72 0f 57 3f 74 56 18 3f
       1.0862523 0.7573504 0.8400794 0.59506917
000360 df e3 47 3f 51 54 83 3f f0 36 59 3f 7b d1 79 3f
       0.7808208 1.0260106 0.8484945 0.97585267
000370 43 74 5d 3f 6c 17 9d 3f 0c 1a 1d 3f 7f ed 81 3f
       0.86505526 1.2272773 0.6136787 1.0150603
000380 bb 6b 88 3f b3 48 83 3f 9c 18 8d 3f dc f9 56 3f
       1.0657877 1.0256561 1.1023135 0.83975005
000390 63 c2 93 3f 0b e4 7e 3f 61 17 5e 3f 5b 46 6b 3f
       1.1543697 0.99566716 0.86754423 0.9190423
0003a0 17 1d 47 3f 9b 8c 85 3f b3 b3 6a 3f 8e 26 05 3f
       0.7777876 1.0433534 0.9168045 0.52011955
0003b0 1c fb 5a 3f 81 1d 80 3f cc 97 6a 3f 54 fe 64 3f
       0.8553941 1.0009004 0.91637874 0.89450574
0003c0 66 6b 63 3f 6d 5a 27 3f 6b b4 71 3f 4d 8c 3d 3f
       0.8883575 0.65372354 0.9441592 0.74042207
0003d0 28 13 8f 3f bd cb a8 3f e4 d2 39 3f 0e 3d 72 3f
       1.1177721 1.3187176 0.7258742 0.9462441
0003e0 06 1d 86 3f 7f 3c 7e 3f 92 a0 4a 3f 42 76 7b 3f
       1.0477607 0.9931106 0.7915126 0.9822732
0003f0 4f 1a 6e 3f 64 ea 86 3f cd d5 2b 3f e6 83 86 3f
       0.93008894 1.054028 0.6712311 1.0509002

std.constant22 f4 [512, 128]
000000 b2 70 9c 3c 12 a2 3b 3f fd be 86 3d 26 a0 32 3d
       0.019096706 0.73294175 0.06579397 0.04360976
000010 f6 9b 6d bd ab 40 56 3f 09 79 b9 be 7a 2a 02 be
       -0.058010064 0.83692425 -0.36225155 -0.12711516
000020 41 70 78 3e c1 df 6a be ba 0b a6 bf 3c b4 d0 3d
       0.24261571 -0.22936918 -1.2972329 0.10190627
000030 83 a3 03 3f 77 bf b1 be dd b0 cf be c3 3c 2e 3e
       0.51421374 -0.3471639 -0.40564623 0.17015366
000040 21 dc 86 be 6b c7 ee 3e 38 b3 ff be 11 5c 8c 3e
       -0.2633982 0.4663652 -0.4994142 0.2741399
000050 7d 36 c5 be ff 7d 9f 3e 41 b5 d0 3d 37 4f 7c be
       -0.38518134 0.31150815 0.101908214 -0.24639593
000060 57 c8 fd 3e 2c 6c f7 bd 4a 9b 3f be d3 b4 77 3e
       0.4956691 -0.12081179 -0.18711582 0.24190073
000070 5d d0 17 be 30 85 2e bd 2a c6 06 3e d7 30 b9 bd
       -0.14825578 -0.042607486 0.13161531 -0.090425186
000080 2c 1e 80 3d 4f 50 da be 00 9f 40 3f 56 1a 38 be
       0.06255755 -0.42639396 0.75242615 -0.17978796
000090 27 d5 07 3d 56 ad b7 3e 1e 2f bb 3e 73 5e 91 3e
       0.033162262 0.35874432 0.36559385 0.28392372
0000a0 41 dc 42 be 69 bb 16 bc 32 6b 3d 3d 21 3e da 3e
       -0.19029333 -0.0091999555 0.046244808 0.42625526
0000b0 8f 4c 81 3e 08 1f 1f bf f0 29 31 be 8b dd db 3d
       0.25253722 -0.62156725 -0.17301154 0.10735615
0000c0 f8 f4 e9 be 5d c2 65 bd 36 5b 75 3e 7e bb db 3c
       -0.4569471 -0.056093562 0.23960575 0.026822802
0000d0 e6 15 ca bd 75 cd 99 be 07 3e 10 3f 44 14 99 bc
       -0.09867458 -0.30039564 0.56344646 -0.018686421
0000e0 1c 7b bb bd c6 e5 da 3d 90 1b 81 3e 44 9a 0d 3f
       -0.091543406 0.10688357 0.2521634 0.55313516
0000f0 20 e9 23 bf 59 f0 bd 3c 06 89 c1 3d b3 f0 28 bf
       -0.64027596 0.023185896 0.09449963 -0.6599228
000100 13 e7 b5 3e 2f 19 fb 3d 89 0e 4b be 90 a3 88 3e
       0.35527858 0.12260663 -0.19829763 0.26687288
000110 5f 85 b4 3d 56 20 27 3c 96 99 ef bc 87 26 b5 be
       0.08814501 0.010200581 -0.02924804 -0.35380957
000120 19 66 e7 be ea 7e 0d be 67 ac b2 bd cb 0f 8e be
       -0.45195082 -0.13817945 -0.087242894 -0.27746424
000130 1d 64 53 be 8e 72 0e 3d 81 fb 3d 3d 76 b0 0e bf
       -0.20643659 0.034777217 0.04638243 -0.5573801
000140 eb 51 3b 3e 7f 3a 37 bf be 53 a7 3e 65 d0 69 be
       0.18292968 -0.7157363 0.32681078 -0.22833402
000150 a8 b6 55 3e 41 89 84 3d f4 32 2b be 82 b2 cf 3e
       0.20870459 0.064714916 -0.16718656 0.40565878
000160 81 8a ea bd 91 76 1f bc 03 2e 3b bf 03 98 89 be
       -0.11452199 -0.009732858 -0.73117083 -0.26873788
000170 bc 87 e3 bd e7 91 08 3e f9 fa af 3d 7e 17 cb 3e
       -0.11109874 0.13336907 0.08592791 0.3966636
000180 b6 c4 87 3e 56 53 c0 bd c1 59 44 3e 69 25 1f 3d
       0.26517266 -0.09390895 0.19174863 0.038854036
000190 b9 6e 17 be 17 18 2c be 54 e5 08 bb 50 af f7 3e
       -0.14788331 -0.16806065 -0.0020888643 0.4837594
0001a0 c2 1b 56 bd 15 6a f6 bc 2f 18 2b 3e f5 a2 21 bf
       -0.052272566 -0.03007988 0.16708444 -0.6313928
0001b0 c5 c6 90 3e 15 5c 76 3e bb 85 50 3e 16 3c 46 be
       0.2827665 0.24058564 0.20363514 -0.19358858
0001c0 16 32 97 3d 7f f0 b1 bd 5f ef cf bd 87 18 ec 3e
       0.073826 -0.08688449 -0.10153078 0.46112463
0001d0 04 5a b6 3c aa c9 dc bc ce 1e b7 bd 0a fe b3 3e
       0.02225972 -0.02695163 -0.089414224 0.35154754
0001e0 5a 18 85 be 5f 17 e3 3e f8 02 bb be f6 d9 59 3e
       -0.2599514 0.44353768 -0.36525702 0.21274552
0001f0 8a 4a 15 3c 24 d1 93 be cd a0 1d be 0b 0c cc 3e
       0.00911201 -0.288705 -0.15393372 0.39852938
000200 a1 82 f9 3d d7 bf 26 be 11 de 32 3c 3f 3e d6 be
       0.121831186 -0.16284119 0.010917203 -0.41844365
000210 a4 4b 48 bd 82 ff a2 bd dc b4 92 bd 71 aa 1d be
       -0.04890026 -0.079588905 -0.071634024 -0.1539705
000220 16 68 ec bd 7f cb 84 3e 8d 67 68 be 87 dd 12 bf
       -0.1154329 0.25936505 -0.22695751 -0.57369274
000230 d2 70 f7 3c 7c ea 67 be 02 28 c2 3e d5 03 5e be
       0.030205164 -0.22648042 0.3792115 -0.2168115
000240 6c e8 4e be 19 b9 87 3d 1f 4a af 3d 71 75 56 3d
       -0.2020585 0.066271015 0.08559059 0.052358095
000250 66 c5 92 be c0 3e 0d bf ac 81 77 3e 3d 7d 25 3e
       -0.28666228 -0.55173874 0.2417056 0.16161056
000260 c0 e4 6a 3e bc 7c 70 be 4f b8 a7 be b6 be 12 3e
       0.22938824 -0.23485082 -0.32757804 0.14330563
000270 dc ba 93 3e 85 26 82 be 50 75 35 3d b5 49 00 3f
       0.288535 -0.25420013 0.04430133 0.5011247
000280 47 67 1b 3f 23 cd 2c bc 59 0e c5 bd e7 aa 2a bd
       0.60704464 -0.010546955 -0.09621877 -0.04166689
000290 0e 48 af 3e d1 52 21 3f c8 d1 37 be 0b 8b 41 be
       0.3423466 0.6301699 -0.17951119 -0.18900697
0002a0 29 e7 8f 3e fd f7 4c bd 5c ab 6d 3e a7 6b 05 be
       0.2810605 -0.050041188 0.232099 -0.13029347
0002b0 6f ab bb be c9 f2 2f be 6d 7a 65 3d 6c 76 4f 3e
       -0.3665423 -0.17182459 0.056024957 0.20260018
0002c0 bb e4 37 bd 5d 87 e7 3c ec b4 93 be 9e e0 c4 3c
       -0.04489587 0.028262788 -0.2884897 0.024032887
0002d0 fe 6e f8 be d1 af b8 be 23 66 cb 3e b3 b6 4b bd
       -0.4852218 -0.36071637 0.39726362 -0.049734782
0002e0 2f fd 54 3e 3c 62 b3 be f7 e1 f7 bd 6e 8c df bc
       0.20799707 -0.35035884 -0.12103646 -0.027288642
0002f0 dc 81 e1 bd dd de 9f 3e 50 7a 1a bf a1 7f 29 3d
       -0.11011097 0.3122472 -0.60342884 0.041381482
000300 a9 4f 89 3c b1 81 80 3d d0 36 00 be 1a d1 45 3e
       0.016761618 0.06274737 -0.1252091 0.19318047
000310 a2 2f 19 be 6a 19 d9 3c 8a 9e ae 3d 55 03 25 be
       -0.14959577 0.026501376 0.08526333 -0.16114552
000320 48 53 d4 be 4b 1f 32 3c 9c 36 be 3d c9 1f 94 3e
       -0.4146979 0.010871719 0.0928776 0.289305
000330 c8 0f d7 3e 3c dc 10 3e 30 8e d1 3d bc ce cb be
       0.42004228 0.14146513 0.10232198 -0.39806163
000340 16 df bd 3e 25 76 3a be b6 7c f6 3d 86 ed b9 bd
       0.37084264 -0.18209131 0.120355055 -0.09078507
000350 ac 87 b1 3d 9e e0 c2 3e 52 11 25 3f 01 4c 79 3e
       0.086684555 0.38061994 0.64479554 0.243454
000360 41 44 b7 be f7 fa 7d bd d7 da 80 3e d1 37 5c be
       -0.3579426 -0.062006917 0.25166962 -0.21505667
000370 51 c5 2d 3f 25 15 66 3c 02 b5 a3 3d 32 bb fb 3c
       0.67879206 0.014043127 0.07993509 0.03072891
000380 15 0b 93 3c 00 06 63 3c a1 69 fd bd fd 19 be be
       0.01794962 0.013856411 -0.12373663 -0.37129202
000390 94 85 7b bc d1 73 ef 3d 4c 49 fc be cd fa 81 be
       -0.015351672 0.11692012 -0.4927467 -0.25386658
0003a0 5b 3d 84 be 53 94 f6 3d 05 5a 70 3e ee 5f dd 3d
       -0.2582806 0.12040009 0.2347184 0.10809313
0003b0 79 55 1f be a7 bf f5 3d 87 c9 30 3e 13 99 2c be
       -0.15559949 0.119994454 0.17264377 -0.16855268
0003c0 8d db 43 3e a6 bc 72 be 87 66 b0 be 91 25 03 be
       0.1912672 -0.23704776 -0.34453222 -0.12807299
0003d0 fa cc 77 be 40 37 4b 3f cb ac 0e 3d d9 d1 05 3e
       -0.24199286 0.7938118 0.034832757 0.13068332
0003e0 be 3c 4a be d8 14 39 3e b2 63 06 3e bb e0 5f be
       -0.19749734 0.18074358 0.13123968 -0.21863072
0003f0 e3 a2 e5 be 12 d5 b1 be 7a af de 3e 51 36 b6 3e
       -0.44850835 -0.34732872 0.43493253 0.35588315

std.constant23 f4 [512, 12]
000000 8a 3e 98 bf f2 c6 0e bf 78 53 45 be 9f 66 b7 be
       -1.1894085 -0.55772316 -0.19270122 -0.3582048
000010 25 7a 7d be da 3f 95 3e c5 69 27 be 59 d1 bf 3d
       -0.24753626 0.29150277 -0.16348942 0.09366102
000020 c7 a0 01 3f 0c 48 87 be 20 85 7b be e0 1f 23 bf
       0.5063595 -0.26422155 -0.24562502 -0.6372051
000030 00 3a 1f bf 79 cf db be 05 03 f7 3e 96 e8 e7 be
       -0.62197876 -0.42931727 0.4824449 -0.45294636
000040 52 44 0d bf b2 b7 bb bd fd 47 83 3e de e3 bf 3e
       -0.55182374 -0.091658965 0.2564086 0.37478536
000050 9f ea fb 3c fd b7 97 be 07 38 ce be 15 61 05 bf
       0.030751524 -0.2963256 -0.4027712 -0.5210126
000060 74 04 de be 99 fc 13 3c 4f 2b 96 3e 08 96 65 3d
       -0.43362772 0.009032392 0.29329917 0.056051284
000070 8d a3 e0 bd 20 39 97 be 88 db 46 be a3 dd b9 be
       -0.10968695 -0.2953577 -0.19419682 -0.36301908
000080 20 23 46 be 19 ba fd bd 06 26 3b 3d ce 68 87 3e
       -0.19349337 -0.12389011 0.04569056 0.26447147
000090 b8 1b 4c be 0c aa 9a be 08 54 62 be 60 c6 db 3d
       -0.19932449 -0.3020786 -0.22102368 0.107311964
0000a0 d7 e6 d7 bd db cf c1 be c2 3c c6 be 43 4a c7 be
       -0.10542076 -0.37853894 -0.3871823 -0.38923845
0000b0 06 2e a6 be 42 a7 3b bc b1 4b f7 3b b0 34 b2 3f
       -0.32456988 -0.011453452 0.007546865 1.3922329
0000c0 2b 52 f2 be e4 38 41 bf 6c d0 ae 3e 16 aa 8a bc
       -0.47328314 -0.75477433 0.34143388 -0.016926806
0000d0 40 2b 93 3e 26 a0 6c be b7 7a c9 be f4 02 87 be
       0.28743935 -0.23107967 -0.39351436 -0.2636944
0000e0 81 29 d9 3d 3a c3 1d 3e fc e5 ee bc 1d 78 97 3e
       0.10603619 0.15406504 -0.0291624 0.29583827
0000f0 5d 77 6b bf f3 a8 b1 3e 5d 61 8e bf c7 66 13 bf
       -0.9197901 0.3469921 -1.1123463 -0.575787
000100 a7 7b bb be 94 1a 44 be 4c 1a 9b 3e c7 4b 12 3f
       -0.36617777 -0.19150764 0.302935 0.5714688
000110 90 c6 2f 3f 28 b4 0a 3f d9 33 fd 3e 25 07 b9 3e
       0.6866236 0.54181147 0.4945362 0.36138263
000120 fa 3b 14 bf 0d b2 63 bf b2 64 b1 3e 0b 35 3d be
       -0.57904017 -0.8894356 0.34647137 -0.18477266
000130 1b 6d a2 be 0c f0 f1 be 59 0a b9 be 30 4d 57 be
       -0.31723866 -0.47253454 -0.36140707 -0.21025538
000140 9c 99 f8 be d1 d3 35 bf 7a 4e be be 07 95 a8 bd
       -0.48554695 -0.7102633 -0.37169248 -0.0823155
000150 52 44 c9 3d 4b 2f ba 3d 2e 9e 67 bd 57 1b b5 bd
       0.09827484 0.09091052 -0.056547336 -0.08843105
000160 f1 0a 15 be a7 33 6c be fb 43 c9 bd 10 39 9c be
       -0.14554955 -0.23066579 -0.09827419 -0.30512285
000170 19 af 65 be 5b 46 60 3d 25 ba 83 bd 89 a9 31 3d
       -0.22430076 0.054754596 -0.064319886 0.043374572
000180 a0 9e a9 3c 22 4a 11 be a5 39 01 bf 11 e1 49 bf
       0.020705521 -0.14188436 -0.50478584 -0.7885905
000190 15 4c 25 bf 2b 2f f8 be ec db 4c be f8 5e ff be
       -0.64569217 -0.48473486 -0.20005769 -0.49877143
0001a0 a2 5c 1d be 26 ed db bd 51 7b 5d 3e 67 36 1d 3f
       -0.15367368 -0.10738592 0.21629073 0.61411136
0001b0 98 44 47 bf c7 c3 56 bd 83 25 bd 3e fa f2 84 bd
       -0.7783904 -0.0524328 0.36942682 -0.064916566
0001c0 bc e2 23 be 75 2c 24 3e 19 60 e7 3d e3 5d fd be
       -0.16004461 0.16032584 0.11297626 -0.49485692
0001d0 cf 8d ea bc 3b 84 b9 bd bc d5 14 3d f7 b2 ed 3d
       -0.028632073 -0.09058424 0.036336645 0.116064005
0001e0 b3 3f ab be 8d dc 3f 3f 03 7a 82 3d 37 bd b2 3e
       -0.33447036 0.7494591 0.06370928 0.34909984
0001f0 c1 1c 69 3e 86 06 5e 3e 49 75 c1 3d 7f ba e1 3d
       0.22764875 0.21682176 0.094461985 0.110218994
000200 0b d3 e0 3a 27 e7 4e 3d 6e 27 1d 3c 99 3b 89 3e
       0.001715274 0.050513413 0.00959192 0.26803282
000210 b6 88 8d bd 73 89 aa 3e 97 8b 55 3f 6b 6a 11 3f
       -0.06910841 0.3330799 0.8341612 0.56803006
000220 18 05 cc be 38 05 de be 63 d0 2b bf c0 76 c1 be
       -0.39847636 -0.43363357 -0.6711485 -0.37785912
000230 87 74 97 be 65 52 ad 3e 00 2f 51 3e 58 7f fc ba
       -0.2958109 0.33851925 0.20428085 -0.0019264026
000240 16 90 b5 bd 43 39 c4 be a3 58 31 be 50 e9 86 3d
       -0.08865373 -0.38324937 -0.17318968 0.065874696
000250 29 92 b9 be 76 cf 01 bf 71 52 eb be 9e a3 8a be
       -0.36244324 -0.50707185 -0.45961335 -0.27077955
000260 46 57 f0 be c9 2a 3f bd 7f fe 18 3e e4 15 04 be
       -0.46941584 -0.046671662 0.14940833 -0.12898976
000270 c8 32 96 be 47 aa 28 be 68 a4 28 3e 4d 2c 7c 3d
       -0.29335618 -0.16471206 0.16468966 0.061565686
000280 44 5e 3f be 96 63 05 be 27 bd 78 be 3b 68 96 be
       -0.18688303 -0.1302627 -0.24290906 -0.29376397
000290 27 6d cc be a7 af a4 be dc e4 ba bd a1 e0 b8 3e
       -0.39927027 -0.32165262 -0.09125683 0.36108878
0002a0 cc 0e 99 be a0 c4 59 be 5e d4 05 bf da 5c fe 3c
       -0.29894102 -0.21266413 -0.5227717 0.031050134
0002b0 fb be 24 be 45 99 6f bf ea 35 20 be 8f 4b c6 be
       -0.16088478 -0.93593246 -0.15645567 -0.38729522
0002c0 62 d5 05 3d aa ed c4 be bd 65 be bf 61 be ab 3e
       0.0326742 -0.38462573 -1.4874798 0.33543685
0002d0 18 73 07 be f7 ae e6 bd ec 39 80 be 9f e6 d9 3e
       -0.13227499 -0.11263841 -0.2504419 0.42558762
0002e0 d3 d2 40 3e 0f 57 3e 3d 5f cf 37 bc e8 89 a4 bd
       0.18830423 0.046469744 -0.011218875 -0.08034116
0002f0 6e 00 42 be ff 8c 0c be 17 cb e6 bd 6a 8b 4f 3d
       -0.18945476 -0.1372566 -0.11269205 0.050670065
000300 79 2f 55 be 63 9c c6 3e 8b d0 4d 3e 0b a0 e0 be
       -0.2081889 0.3879119 0.20099084 -0.43872103
000310 61 c6 c5 be f4 cb 86 be 6e 09 7f bd 93 0a cc be
       -0.38627914 -0.2632748 -0.062264852 -0.39851817
000320 2b 4f 43 bd 91 25 2f 3e 5b 03 d9 be 77 1f 15 be
       -0.047682922 0.17104174 -0.42385373 -0.14562784
000330 f1 13 fe be be a9 ab 3e 00 c4 5c bf ce 7a 67 bf
       -0.4962459 0.3352794 -0.8623657 -0.9042176
000340 21 2f 26 3e 69 7b 6b 3e 43 ab 1e 3d be b2 aa 3e
       0.16228916 0.22996296 0.038737547 0.33339494
000350 63 a2 81 3e 30 8d 0c bf 77 fc 76 be 20 62 37 3d
       0.25319204 -0.54902935 -0.24119745 0.044771314
000360 61 c7 c7 3c 04 9c 38 3f 5f 39 0e bf b7 d8 af be
       0.024387063 0.7211306 -0.5555629 -0.34345028
000370 de 8c 13 3e c2 36 0d bd f8 af 9f 3c 10 fd c6 bc
       0.14409205 -0.03447605 0.019493088 -0.024290591
000380 21 aa 31 3e 5e 13 ab bd 93 c3 14 3e de 1f a0 3e
       0.17350055 -0.083533034 0.1452773 0.31274313
000390 d5 a7 3f bf 34 6d f6 be 71 62 0f 40 07 69 30 3f
       -0.74865466 -0.4813019 2.2403834 0.6891026
0003a0 1d ea b7 3e fe f9 1a be 86 06 01 bf 64 e1 ea be
       0.35920802 -0.15134427 -0.5040058 -0.45875084
0003b0 0f ee c5 be fa d4 4b bf 1d 56 f4 be 49 93 96 be
       -0.38658187 -0.7962185 -0.4772195 -0.29409245
0003c0 47 df 1d bf 96 5a 6b bf f3 14 57 3f e4 64 c1 3e
       -0.6166882 -0.919351 0.8401634 0.37772286
0003d0 99 3d 3d 3e 34 75 58 3e d4 0f b5 3c 7f 5d 27 be
       0.18480529 0.2113846 0.022102274 -0.1634426
0003e0 f1 41 f6 3d 56 c9 3a 3e a5 ca 56 be 69 a2 ef be
       0.12024296 0.18240866 -0.2097574 -0.46803597
0003f0 43 ab 24 be a5 fe 13 bf 45 79 0b bf 12 b8 50 bf
       -0.16080956 -0.5781043 -0.5448192 -0.8153087

lstm_1/lstm_cell_1/bias1 f4 [512]
000000 0f c6 91 3e d9 fb 92 3e 02 a8 df 3e 0b dd 7d 3e
       0.2847142 0.2870777 0.43682867 0.24791352
000010 62 08 a6 3d 57 18 0b 3e 7b 09 96 3e 14 ea 81 3e
       0.08107068 0.13583504 0.29304108 0.253739
000020 b9 aa a9 3e a1 e7 dc 3e 5f 25 a5 3e 0e 9c 62 3e
       0.33138064 0.4314547 0.32255074 0.22129843
000030 bc a4 17 3d 52 89 5e 3e 36 c8 b2 3e 8d 3b 0c 3e
       0.037022337 0.21732071 0.34918374 0.13694592
000040 26 bb f7 3e 28 7f 46 3e a6 83 e8 3e c5 38 fa 3e
       0.4838497 0.19384444 0.4541294 0.48871437
000050 af a5 aa 3e 41 61 a6 3e 1c db 28 3e 4f 7f 50 3e
       0.33329532 0.32496074 0.16489834 0.20361064
000060 0f cb 5e 3e f4 f2 e1 3d d3 4e dd 3e 2a a6 d0 3e
       0.21757148 0.11032668 0.432242 0.40751773
000070 b5 55 a0 3d 02 ad a4 3d 6b b3 ab 3e 54 8e 12 3e
       0.07828847 0.08040811 0.33535323 0.14312106
000080 42 44 1b 3e 5b 48 ab 3d 3f 94 2d 3d 46 f7 80 3e
       0.15162757 0.0836341 0.042377707 0.25188655
000090 5a 5d 3f 3e 1d 41 a0 3d 12 f9 ae 3d 2a 41 ab 3e
       0.18687955 0.078249194 0.085436 0.33448154
0000a0 80 19 67 3e 0a 45 4d 3e 5f 0e 9e 3e 91 97 47 3e
       0.22568321 0.20045868 0.3087034 0.19491412
0000b0 ee fb ea 3d 65 cf d9 3e ea 05 06 3e 9a 38 5a 3e
       0.11473833 0.42541042 0.13088194 0.21310654
0000c0 7d 9d 4e 3e d2 11 4b 3e 4e 45 00 3d 22 49 94 3e
       0.20177265 0.19831017 0.031316094 0.28962046
0000d0 01 cb 60 3e b0 06 68 3e d3 56 a4 3e 5f ad 62 3e
       0.2195244 0.22658801 0.32097492 0.22136448
0000e0 9e 56 42 3e 64 6d b6 3e 71 d7 17 bd 8d 28 6b 3e
       0.18978354 0.35630333 -0.037070695 0.22964688
0000f0 49 2c 7d 3e 20 7a 67 3e 36 96 c0 3e ce 31 96 3e
       0.24723925 0.2260518 0.37614602 0.29334873
000100 1b 7a ba 3e 6b 0c 35 3e 8f bf bb 3e 82 70 55 3e
       0.36421284 0.17680518 0.36669585 0.208437
000110 65 cc 79 3e 0e cb 72 3e 8f a5 44 3e 21 45 db 3e
       0.24394377 0.23710272 0.1920378 0.4282618
000120 ce c3 bb 3e fa 20 13 3e 29 4e a6 3e 14 c0 c4 3e
       0.36672825 0.14368048 0.32481506 0.38427794
000130 9f 5e 4d 3e d2 43 a7 3e 2a 8e 2b 3e 9c 6b 35 3e
       0.20055626 0.3266893 0.1675345 0.17716831
000140 01 2d 80 3e bf f4 b6 3d 67 76 ad 3e 38 8c 22 3d
       0.25034335 0.089334 0.33879396 0.039684504
000150 0e b0 4c 3e 2a df 52 3e e4 15 6c 3e 81 15 e4 3e
       0.19989035 0.20592943 0.23055226 0.44547656
000160 72 c0 73 3e f6 fc 65 3e 2f 4d f2 3e 02 ce 67 3e
       0.23803881 0.22459778 0.4732451 0.2263718
000170 ad 5c 9d 3e ba f4 0f 3f 16 06 c6 3e 89 e7 78 3e
       0.30734769 0.562328 0.38676518 0.24307074
000180 b6 f5 b2 3e bf 86 b8 3c 42 75 9a 3e d9 6c 8f bc
       0.34953088 0.02252519 0.30167586 -0.017507957
000190 8b 4b 7b 3e d7 5a 43 3e a8 d2 93 3d 85 b8 1d 3e
       0.24540536 0.19077621 0.07217914 0.1540242
0001a0 7e 61 a1 bc 5b 07 b9 3d 23 9d 0a 3e 4a d6 e3 3d
       -0.019699808 0.09034606 0.13536505 0.11124857
0001b0 f8 72 a9 3e bc 45 ae 3e 8f 4c 80 3e 21 98 a0 3e
       0.33095527 0.34037578 0.2505841 0.31366065
0001c0 df 45 7a 3e 00 23 95 3e bc 6c 5d 3d 4a d6 2c 3e
       0.24440716 0.29128265 0.054058775 0.1687862
0001d0 52 88 6a 3e 3f f6 93 3e b2 93 b4 3e c6 8e ab 3e
       0.22903565 0.28898808 0.35268933 0.33507365
0001e0 a2 72 39 3d 7d 6a ef 3d 82 96 ce 3e 40 a4 fd 3e
       0.045275338 0.11690233 0.40349203 0.49539375
0001f0 e4 24 5e 3e f1 c3 ab 3e 64 a4 0d 3e 0e 10 40 3e
       0.2169376 0.3354793 0.13832241 0.18756124
000200 64 64 88 3f cb 37 8a 3f 28 03 2e 3f 81 34 90 3f
       1.0655637 1.0798277 0.67973566 1.1266023
000210 ca a5 71 3f f9 54 76 3f 9b bf 53 3f 57 56 8a 3f
       0.943936 0.9622341 0.8271424 1.0807599
000220 98 41 63 3f 8c 27 77 3f d4 f5 53 3f 8d 6a 4b 3f
       0.88771963 0.9654472 0.8279698 0.7945946
000230 82 f4 66 3f 3f 97 71 3f c8 d8 89 3f 58 2a 67 3f
       0.9021684 0.9437141 1.0769281 0.90298986
000240 89 7f 69 3f 1e dd 90 3f 6f d9 6f 3f b8 d8 4d 3f
       0.9121023 1.131748 0.9369115 0.8040881
000250 aa 5d 79 3f 4e 0e 55 3f 0c f1 42 3f 22 0d 9d 3f
       0.97408545 0.8322495 0.7614906 1.2269633
000260 7d f9 50 3f b8 c8 89 3f 26 72 78 3f b3 e8 3a 3f
       0.8163069 1.076438 0.97049177 0.7301132
000270 5b c0 73 3f 7a 8b 5b 3f 40 07 83 3f d9 81 5c 3f
       0.95215386 0.857597 1.0236588 0.8613563
000280 12 6c 5a 3f b9 d3 5a 3f 3e 5d 75 3f 35 b0 81 3f
       0.8532115 0.85479313 0.958454 1.0131899
000290 28 2f 72 3f 22 37 66 3f 33 71 35 3f 1b 19 80 3f
       0.94603205 0.89927876 0.70875853 1.0007662
0002a0 95 98 6e 3f 26 f2 65 3f 48 25 95 3f f6 38 8b 3f
       0.9320157 0.89822614 1.1652002 1.0876758
0002b0 4a 18 51 3f 90 ba 53 3f c4 38 29 3f 6e 85 9c 3f
       0.8167769 0.82706547 0.6610224 1.222822
0002c0 23 1d 56 3f e7 6e 7c 3f d9 9f 67 3f 9c 62 8b 3f
       0.8363821 0.98606724 0.90478283 1.0889468
0002d0 6a 05 91 3f d9 d1 80 3f c3 22 4a 3f 30 94 67 3f
       1.1329777 1.006404 0.7895929 0.9046049
0002e0 0a ad 79 3f ec 0d 5f 3f f6 c0 9a 3f 15 06 83 3f
       0.9752966 0.8713062 1.2090137 1.0236231
0002f0 9a e7 76 3f a5 4c 56 3f 58 d0 6c 3f 81 64 55 3f
       0.96447146 0.837107 0.9250541 0.8335648
000300 bc ff 75 3f 50 b5 92 3f 7a 75 50 3f fe 6f 95 3f
       0.96093345 1.1461582 0.81429255 1.1674802
000310 7e e6 83 3f 75 33 a0 3f 9f 52 55 3f e8 96 63 3f
       1.0304716 1.2515703 0.83329195 0.8890214
000320 e1 fc 31 3f eb cb 61 3f d6 3c 85 3f c2 bd 82 3f
       0.6952649 0.8820178 1.0409191 1.021416
000330 45 d5 92 3f da 90 66 3f d9 f8 4c 3f 87 e1 77 3f
       1.1471335 0.90064776 0.8006721 0.968285
000340 f6 8f 4c 3f f8 e3 72 3f 23 69 7d 3f 99 0d 83 3f
       0.79907167 0.948791 0.9898855 1.0238525
000350 18 1f 97 3f 01 a2 71 3f 2b cd 7c 3f 8f 87 55 3f
       1.1806364 0.94387823 0.9875056 0.8340997
000360 5f 34 8b 3f 50 6e 9b 3f 17 d8 71 3f 4f e5 7c 3f
       1.0875357 1.214304 0.9447035 0.987874
000370 50 38 8f 3f a3 9d 50 3f ce 1b 85 3f 78 45 74 3f
       1.118906 0.81490535 1.039911 0.954185
000380 a2 e5 7d 3f c1 54 6a 3f 89 4d b4 3f 20 36 8b 3f
       0.99178517 0.91535574 1.4086162 1.0875893
000390 61 0b 44 3f e0 e5 94 3f 31 9b 2f 3f 17 b7 4d 3f
       0.7657986 1.1632652 0.6859618 0.803575
0003a0 07 e2 41 3f 03 14 6a 3f 2a 79 9e 3f 54 95 4b 3f
       0.75735515 0.91436785 1.2380726 0.7952473
0003b0 9c be 8e 3f b7 57 52 3f 44 16 60 3f 6e a0 9b 3f
       1.1151919 0.8216509 0.87533975 1.2158334
0003c0 28 aa 9a 3f cb 5c 4f 3f eb 55 83 3f 22 fa 70 3f
       1.2083178 0.81000966 1.0260595 0.9413167
0003d0 a7 62 67 3f a6 73 53 3f 0f 7a 4e 3f 4e 4b 48 3f
       0.90384907 0.8259834 0.80654997 0.78239906
0003e0 c0 58 92 3f 9e 2f 84 3f f4 72 8d 3f 3c b0 56 3f
       1.1433334 1.0327032 1.1050706 0.8386266
0003f0 c3 a5 89 3f a5 4e 42 3f 8c 14 8f 3f 5f 5a 98 3f
       1.0753711 0.7590125 1.1178145 1.1902579
